models/squats/squats_float16.tflite (tflite, 148328 bytes, 17 tensors)

arith.constant47 f2 [1, 17, 1]
00000000: 0000 0000 0000 0000 0000 003c 003c 0000
00000010: 0000 0000 0000 003c 003c 003c 003c 003c
00000020: 003c
0.0 0.0 0.0 0.0 0.0 1.0 1.0 0.0
0.0 0.0 0.0 1.0 1.0 1.0 1.0 1.0
1.0

arith.constant52 f2 [17, 2]
00000000: 0000 0000 0000 0000 0000 0000 0000 0000
00000010: 0000 0000 0000 003c 0000 003c 0000 0000
00000020: 0000 0000 0000 0000 0000 0000 0000 003c
00000030: 0000 003c 003c 003c 003c 003c 003c 0000
00000040: 003c 0000
0.0 0.0 0.0 0.0 0.0 0.0 0.0 0.0
0.0 0.0 0.0 1.0 0.0 1.0 0.0 0.0
0.0 0.0 0.0 0.0 0.0 0.0 0.0 1.0
0.0 1.0 1.0 1.0 1.0 1.0 1.0 0.0
1.0 0.0

arith.constant53 f2 [32, 2]
00000000: 9a36 1c34 54b5 a3b5 ae2e 1c2f 1d36 eeb6
00000010: 8c34 4bb1 8b35 7bad 3f36 1ba6 952d e9ad
00000020: 5b33 1eb1 43b4 85b5 50b5 b430 8134 9f32
00000030: 8da8 2e34 de33 7cb4 ee2f 7c32 45ac 6d35
00000040: deb4 1835 35b6 37b4 0736 feb2 7bb4 17b1
00000050: 7134 502a a2ad 6335 ff31 12b0 4d31 6924
00000060: 6736 d9b2 2c38 72b4 dd34 442e 40b6 4b31
00000070: 85b7 1e34 df30 5525 18b6 1cb5 9eb4 90b6
0.4126 0.2568 -0.333 -0.3523 0.1044 0.1111 0.382 -0.433
0.2842 -0.1654 0.3464 -0.08563 0.3904 -0.02385 0.0872 -0.09235
0.2299 -0.1599 -0.2664 -0.345 -0.332 0.147 0.2815 0.2069
-0.03555 0.2612 0.2458 -0.2803 0.1239 0.2026 -0.0667 0.339
-0.3042 0.3184 -0.388 -0.2634 0.3767 -0.2185 -0.28 -0.159
0.2776 0.04932 -0.088 0.3367 0.1874 -0.1272 0.1656 0.01723
0.4001 -0.214 0.5215 -0.2778 0.304 0.0979 -0.3906 0.1654
-0.47 0.2573 0.1522 0.02083 -0.3809 -0.3193 -0.2886 -0.4102

arith.constant54 f2 [32, 128]
00000000: 64b2 19b4 6db0 c4af b01c adad b4ae 132f
00000010: 7cb1 3aac 9824 baad fa33 cab1 1633 f125
00000020: e326 3e2b 89b1 2215 a0a2 3f34 ed2f 859f
00000030: 55a8 95ab d6ab cfaf 6e2d 58b0 69ac 792e
00000040: 75b2 afac 3833 9728 2a32 c92e 57b1 71ad
00000050: 1023 f42c fea8 aeac 5c32 2a34 d12e cc30
00000060: 18a4 47b0 b4af df29 9630 7a30 16ab 5932
00000070: 9b2c f8af 64b1 f6ae 2c33 7733 5430 111c
00000080: 72b1 f3ac bc2f c028 b1b1 952c f92d 09b2
00000090: 211e 9928 052a f2b1 ac2c 3db2 daa1 26ad
000000a0: e1a8 8a1d 7131 fc32 9e2f 5f30 5727 baa1
000000b0: 47ac 11a9 bb2b 0522 1c2c 03b1 81a8 c1ad
000000c0: 122e 1429 77af 402c 22ad 57ac 712c 98b0
000000d0: 4b2d 102f 262d fda9 cf31 d5af 98b0 c7b1
000000e0: 0f30 d6ad 2da2 a830 daa9 7cad ba29 3eae
000000f0: d220 2331 6130 0fae e9b2 ec2e ec2e ad33
00000100: b3b0 432d 4aaa 222f 8d27 412f 59ad 4f24
00000110: eb2f 479b 4bb4 ef2f e5b0 1230 a9a0 e3b3
00000120: 6bb3 9233 de2f fda7 f1ac a5b2 c630 8eb2
00000130: 7b28 1bb3 3fad e09f 20b0 8c28 8432 922e
00000140: bcb0 f9ae 80b2 d62c 22ae 319e a6b2 a2ac
00000150: 43ae cbad e3b2 1c31 70b0 28a4 2431 b222
00000160: e5af 49b1 ee32 fd2f fc2c 09ae 37ad 572d
00000170: fa28 d032 3bb0 762f ec31 3ba3 0ea6 40ad
00000180: 272d c8a9 de32 ccb0 d6af 3aa3 3532 adae
00000190: b82c 0db2 1f31 a928 69ac 6fb0 fa2d df2e
000001a0: 82aa 48ac ba2b 2aac ec2c e232 cfaa 28b4
000001b0: 84af 7b2e bdaa 0c2f d9ac e42f 4eb0 c3ab
000001c0: a9ad f42c b0b1 6329 75b2 ccae d3ab 622d
000001d0: 592f 8e32 eb2c 2cb4 a331 01ad c2b0 8830
000001e0: f724 68a4 4db5 421b fd32 86b1 4eb0 9eb0
000001f0: 3832 0e32 cfb1 6331 c22f 8332 e431 b4b0
-0.1997 -0.256 -0.1383 -0.12134 0.004578 -0.0887 -0.10474 0.11053
-0.1714 -0.06604 0.01794 -0.0895 0.2493 -0.1809 0.2214 0.02321
0.0269 0.05658 -0.173 0.001253 -0.01294 0.2654 0.12384 -0.007343
-0.03384 -0.05923 -0.06122 -0.122 0.08484 -0.1357 -0.0689 0.10114
-0.2018 -0.0732 0.2256 0.03586 0.1926 0.106 -0.1669 -0.085
0.013794 0.0774 -0.039 -0.0731 0.1987 0.2603 0.1065 0.1499
-0.01599 -0.1337 -0.12036 0.04587 0.1433 0.1399 -0.05536 0.1984
0.07196 -0.1245 -0.1685 -0.10876 0.2241 0.2333 0.1353 0.00397
-0.1702 -0.07733 0.12085 0.0371 -0.1779 0.0716 0.0933 -0.1886
0.005985 0.03592 0.04703 -0.1858 0.073 -0.195 -0.01143 -0.08044
-0.03812 0.00541 0.17 0.2183 0.119 0.1366 0.02867 -0.011185
-0.06683 -0.03958 0.0604 0.01176 0.0642 -0.1566 -0.0352 -0.0899
0.09485 0.03967 -0.11664 0.0664 -0.0802 -0.0678 0.0694 -0.1436
0.0827 0.11035 0.08044 -0.04678 0.1815 -0.1224 -0.1436 -0.1805
0.1268 -0.0912 -0.01206 0.1455 -0.04572 -0.0857 0.04474 -0.09753
0.009415 0.1605 0.1368 -0.09467 -0.216 0.10815 0.10815 0.2399
-0.1469 0.0822 -0.04913 0.11145 0.0295 0.11334 -0.08356 0.01683
0.1237 -0.003553 -0.2683 0.12396 -0.153 0.1272 -0.0091 -0.2465
-0.2318 0.2366 0.1229 -0.0312 -0.0772 -0.2076 0.1492 -0.2048
0.035 -0.222 -0.082 -0.00769 -0.1289 0.03552 0.2036 0.10266
-0.148 -0.10895 -0.2031 0.07556 -0.0958 -0.006046 -0.2078 -0.0724
-0.09784 -0.0905 -0.2152 0.1597 -0.1387 -0.01624 0.1606 0.01308
-0.12335 -0.1652 0.2166 0.1248 0.0779 -0.0943 -0.0815 0.08344
0.03888 0.2129 -0.1322 0.1166 0.185 -0.01412 -0.02365 -0.08203
0.0805 -0.04517 0.2146 -0.1499 -0.12244 -0.014114 0.194 -0.1043
0.0737 -0.1891 0.16 0.0364 -0.0689 -0.1385 0.0934 0.10736
-0.05084 -0.0669 0.06036 -0.06506 0.0769 0.2151 -0.0532 -0.2598
-0.11743 0.10126 -0.05264 0.1101 -0.07574 0.1233 -0.1345 -0.06064
-0.08844 0.0774 -0.1777 0.04208 -0.2018 -0.1062 -0.06113 0.0841
0.1148 0.2048 0.07684 -0.2607 0.1761 -0.0782 -0.1487 0.1416
0.0194 -0.01721 -0.3313 0.003544 0.2184 -0.1726 -0.1345 -0.1443
0.1943 0.1892 -0.1815 0.1683 0.1212 0.2035 0.1841 -0.147

arith.constant55 f2 [48, 64]
00000000: 4930 18b3 d2ae ff31 f62f 9018 e7ae 35b2
00000010: 572c 28b2 7c0a dfb1 84ab 8bad 63a0 3e30
00000020: c42d 51ac bd30 ee30 46ab bdb5 642d 8830
00000030: aead 0c2e 1433 41b4 9eaa 21b1 0e30 19b8
00000040: cba6 60b3 bfae ffa8 b1b2 62ad f62f 73aa
00000050: 7525 25ae d0ad f331 43af 0d32 0130 711a
00000060: 1330 672b 05b2 ecb0 7e29 c724 72b2 f92e
00000070: 99a0 12b1 92a9 0a33 8e33 36b2 f030 4bac
00000080: 1e2c cf32 42a9 2230 48b0 d62f 502f 37b0
00000090: db2d 832c cc2f 2a30 acb2 992d dc2e 99a6
000000a0: 4ab6 6ab4 caac 70b7 cb30 efb1 812b 1c34
000000b0: b825 032d db2d 7fb0 9395 08b4 d19d ef2e
000000c0: f7af 4e28 1631 4528 5e34 4134 412d b6ac
000000d0: 2fb5 9c31 7e2c 872c fab0 7831 1e31 80b1
000000e0: a1b5 57b3 96af d430 65a1 75b4 a331 24a4
000000f0: 34a6 0635 8734 2cb6 b430 7eb6 3133 9a23
00000100: c6a8 a7b4 7fb7 0330 84a5 62b4 342e d3b2
00000110: 00b2 c2b1 c1b2 5ab0 a016 7cb0 4630 149a
00000120: 6634 acac 2c32 c033 b430 55b0 22b3 68b3
00000130: d72c 4cb2 d2ac 11b1 e728 9a2e 51ac 04b3
00000140: 112b d3b1 3528 8d34 4623 5c2b 5cad 11b3
00000150: b734 74ad 66b4 d732 4e31 c530 6f2a 152c
00000160: 5835 9a2a 2130 222a ff2e 9333 11a9 73ab
00000170: fd23 5233 79b0 072d bbae 932e 5cb0 3bad
00000180: 77ae 1035 a837 39af 0cad bb31 0fae 2932
00000190: a133 9e34 a330 359f ef2c ae2e 7926 7527
000001a0: 5f30 2e2b cf28 0831 5ca9 9835 6cb0 0130
000001b0: 2c28 0634 a32d c7a3 db2d 592d a0ad 3b31
000001c0: e426 ad31 0e31 799d 27b5 ddb1 ca29 681c
000001d0: b32e 01b0 7c2d 35b3 b934 50aa 492f 9732
000001e0: 831e 3920 73a4 9732 82b2 a22f 90b4 83ae
000001f0: 13b5 eab0 b7a9 3229 d82c 20b3 f728 b3ad
0.1339 -0.2217 -0.10657 0.1874 0.1244 0.002228 -0.10785 -0.194
0.0678 -0.1924 0.0001979 -0.1835 -0.05872 -0.0866 -0.00857 0.1326
0.0901 -0.06744 0.1481 0.154 -0.05682 -0.3586 0.0842 0.1416
-0.08875 0.0945 0.2212 -0.2659 -0.0517 -0.1603 0.1267 -0.512
-0.02654 -0.2305 -0.1054 -0.03903 -0.2091 -0.0841 0.1244 -0.05038
0.02132 -0.096 -0.0908 0.1859 -0.11346 0.1891 0.1251 0.003145
0.1273 0.05783 -0.1881 -0.1538 0.0429 0.01866 -0.2014 0.10895
-0.00898 -0.1584 -0.04352 0.22 0.2361 -0.1941 0.1543 -0.0671
0.06433 0.2128 -0.04108 0.1292 -0.1338 0.12244 0.11426 -0.1317
0.0915 0.0705 0.1218 0.1301 -0.2085 0.08746 0.1072 -0.02577
-0.393 -0.276 -0.0748 -0.4648 0.1498 -0.1854 0.05862 0.2568
0.02234 0.0783 0.0915 -0.1405 -0.001361 -0.252 -0.00568 0.10834
-0.12445 0.03363 0.1589 0.03336 0.273 0.2659 0.0821 -0.0736
-0.324 0.1753 0.0702 0.07074 -0.1555 0.1709 0.1599 -0.1719
-0.3518 -0.2294 -0.1185 0.1509 -0.01054 -0.2786 0.1761 -0.01617
-0.02423 0.314 0.283 -0.3857 0.147 -0.4058 0.2247 0.01485
-0.0373 -0.2908 -0.4685 0.1254 -0.02155 -0.274 0.0969 -0.2133
-0.1875 -0.1799 -0.211 -0.136 0.001617 -0.1401 0.1335 -0.002968
0.275 -0.073 0.1929 0.2422 0.147 -0.1354 -0.2229 -0.2314
0.0756 -0.1968 -0.0753 -0.1583 0.0383 0.10315 -0.06744 -0.2192
0.0552 -0.182 0.03287 0.2844 0.014206 0.0575 -0.08374 -0.2208
0.2947 -0.0852 -0.275 0.2137 0.1658 0.149 0.05026 0.0638
0.334 0.05157 0.129 0.0479 0.1093 0.2367 -0.03958 -0.0582
0.0156 0.2288 -0.1398 0.07855 -0.10516 0.1027 -0.1362 -0.0817
-0.101 0.3164 0.4785 -0.11285 -0.07886 0.1791 -0.09467 0.1925
0.2384 0.2886 0.1449 -0.00704 0.0771 0.1044 0.02528 0.02913
0.1366 0.0561 0.03757 0.1572 -0.04187 0.3496 -0.1382 0.1251
0.0326 0.2515 0.0881 -0.01519 0.0915 0.08356 -0.0879 0.1635
0.02692 0.1774 0.158 -0.005344 -0.322 -0.1832 0.04523 0.004303
0.1047 -0.1251 0.0857 -0.2252 0.2952 -0.04932 0.11383 0.2059
0.00636 0.00825 -0.01738 0.2059 -0.2034 0.11926 -0.2852 -0.10175
-0.3171 -0.1536 -0.04465 0.0406 0.0757 -0.2227 0.0388 -0.08905

arith.constant56 f2 [24, 48]
00000000: 5e25 b22f dcb3 57a9 c4b2 df34 94ae 9c33
00000010: 4833 5534 4035 2e34 5829 d9b1 6629 5234
00000020: c732 a9b4 e4b3 b02d 532c 58b3 2235 6536
00000030: 3438 4831 f1ab a735 e536 abb1 1eb1 1c38
00000040: ee38 04b6 3bb4 8031 4f2c c6b5 c9b2 5ead
00000050: 7936 2835 ccb5 b830 e42f 8c37 a934 309e
00000060: 9aad 3030 ddb4 faac 74b0 8235 16b4 c431
00000070: 1a36 7e2f 672f a733 a4b5 b0b2 2836 2233
00000080: 7d34 9aaf 81b6 3038 3f37 6829 5c31 0c34
00000090: 7137 9433 d3b2 7032 a736 6fb3 70b4 0d38
000000a0: c838 8ea9 c0b4 6d35 0d30 3bb8 4bae 59b4
000000b0: 0834 1e2d 66b3 d836 4835 2436 732d 38b1
000000c0: d138 dcb3 b437 d6b5 4ba7 caac be37 15b3
000000d0: 91ad 31aa 7fb1 f7b6 0c31 392a 1db8 29b4
000000e0: 52ae b238 5c35 95b3 c2b0 8438 c7b4 b2ac
000000f0: c4ac 83b1 6937 77b2 a5ac 4836 dc36 dab2
00000100: 87b5 7030 7e35 a8b2 18a6 1c38 b337 8138
00000110: 2bb1 f7b1 7534 20b4 7eb5 f31a 8bb7 62ad
00000120: dc30 91af f035 2129 722f 70b4 ec2d 81a9
00000130: 26b3 8630 96b5 55b3 4234 1d35 5bb0 89b0
00000140: 76ae 0138 8133 dbaa 83b5 8a38 ac2c 1baa
00000150: cb29 6cb2 7238 c1ad f8ab 1833 7a36 c8b2
00000160: 28b6 7030 1636 9ab1 60b0 612d 8236 b630
00000170: a4b6 3dad d033 d5b2 53b5 83b4 f1a9 04a7
00000180: 2eb2 89aa adb5 fb27 2a2d 4d34 3cb5 73a9
00000190: 9b33 d8b0 af34 6f37 f1aa 84b4 7536 aab3
000001a0: a231 d6b5 76b5 a736 0baa 92b5 b133 282f
000001b0: a237 b237 83b4 5e32 1a34 85b4 f8b2 6637
000001c0: b031 fe28 9daf f930 ca31 c8a0 cfa9 6320
000001d0: dd38 0135 e7b5 e030 9e33 1936 3934 34b1
000001e0: 9c30 489f 8dae 8d2c 61b7 dc34 7eb1 72a8
000001f0: 1533 8728 392f 0e35 921a 44b3 482d bab1
0.02097 0.12024 -0.2456 -0.04172 -0.2114 0.3044 -0.1028 0.2378
0.2275 0.2708 0.3281 0.2612 0.04175 -0.1827 0.04218 0.27
0.2118 -0.2913 -0.2466 0.08887 0.06757 -0.2295 0.3208 0.3997
0.5254 0.165 -0.06204 0.3533 0.431 -0.1771 -0.1599 0.5137
0.616 -0.376 -0.2644 0.1719 0.0673 -0.3608 -0.212 -0.08386
0.4045 0.3223 -0.3623 0.1475 0.1233 0.4717 0.2913 -0.006042
-0.0875 0.1309 -0.304 -0.07776 -0.1392 0.3442 -0.2554 0.1802
0.3813 0.11707 0.11566 0.2391 -0.3525 -0.209 0.3848 0.2229
0.2805 -0.1188 -0.4065 0.5234 0.453 0.04224 0.1675 0.253
0.465 0.2368 -0.2133 0.2012 0.4158 -0.2323 -0.2773 0.5063
0.5977 -0.0434 -0.2969 0.339 0.1266 -0.529 -0.0983 -0.2717
0.252 0.07996 -0.2312 0.4277 0.33 0.3838 0.08514 -0.1631
0.602 -0.2456 0.4814 -0.3647 -0.02849 -0.0748 0.484 -0.2213
-0.087 -0.04837 -0.1718 -0.4353 0.1577 0.0486 -0.514 -0.26
-0.09875 0.587 0.335 -0.2369 -0.1487 0.5645 -0.2986 -0.07336
-0.07446 -0.1722 0.4631 -0.202 -0.0726 0.3926 0.4287 -0.2141
-0.3455 0.1387 0.3433 -0.208 -0.0238 0.5137 0.4812 0.563
-0.1615 -0.1864 0.2786 -0.2578 -0.3433 0.003393 -0.4714 -0.0841
0.1519 -0.1182 0.371 0.04007 0.11633 -0.2773 0.0925 -0.043
-0.2234 0.1414 -0.349 -0.2291 0.266 0.3196 -0.1361 -0.1417
-0.10095 0.5005 0.2345 -0.05356 -0.3445 0.5674 0.073 -0.0477
0.04526 -0.2007 0.5557 -0.0899 -0.06226 0.2217 0.4048 -0.2119
-0.3848 0.1387 0.3804 -0.175 -0.1367 0.08405 0.4067 0.1472
-0.415 -0.08185 0.2441 -0.2135 -0.3328 -0.282 -0.04642 -0.0274
-0.1931 -0.05106 -0.3547 0.03117 0.0807 0.2688 -0.3271 -0.04257
0.2377 -0.1514 0.2927 0.4646 -0.05423 -0.2822 0.4036 -0.2395
0.176 -0.3647 -0.3413 0.4158 -0.0472 -0.3481 0.2404 0.1118
0.477 0.481 -0.282 0.199 0.2563 -0.2825 -0.2178 0.4624
0.1777 0.039 -0.11896 0.1554 0.1809 -0.00934 -0.04538 0.00857
0.608 0.3127 -0.369 0.1523 0.238 0.381 0.264 -0.1626
0.144 -0.00711 -0.10236 0.0711 -0.4612 0.3037 -0.1716 -0.03473
0.2213 0.03537 0.11285 0.316 0.003208 -0.227 0.0825 -0.179

arith.constant57 f2 [1, 24]
00000000: 1cb8 7eb6 3736 c737 4cb7 ffb8 23b9 c538
00000010: 79b8 c837 0539 5db7 fdb6 7239 b0b8 5939
00000020: 51b6 0c39 63b7 09b9 f738 eeb6 30b7 3f39
-0.5137 -0.4058 0.3884 0.486 -0.456 -0.6245 -0.642 0.596
-0.559 0.4863 0.6274 -0.4602 -0.4368 0.6807 -0.586 0.6685
-0.3948 0.631 -0.4617 -0.6294 0.6206 -0.433 -0.4492 0.656

arith.constant63 f2 [32]
00000000: 51b2 0000 1bae 47a7 5529 2529 7f90 8b92
00000010: beac 0000 8aa1 3897 d1b0 48a9 81af 2ab0
00000020: a22a 0000 9429 0000 4a26 04b2 109b 9e98
00000030: 1029 b59e d021 f92c 01a9 96ab 0000 0000
-0.1974 0.0 -0.0954 -0.02843 0.04166 0.0402 -0.000549 -0.0007987
-0.0741 0.0 -0.01082 -0.001762 -0.1505 -0.04126 -0.11725 -0.1301
0.05182 0.0 0.04358 0.0 0.02457 -0.188 -0.003448 -0.002254
0.03955 -0.00655 0.01135 0.0777 -0.0391 -0.05927 0.0 0.0

arith.constant64 f2 [32]
00000000: 8925 769a 0aa2 3922 c2a3 0327 04a5 3997
00000010: 9a9d 0d28 14a3 daa3 0000 8224 38a1 6fa4
00000020: b4a0 3926 1a9a 0125 68a3 0da0 47a4 211c
00000030: 930c 17a3 97a4 f221 041d 2e1d 84a5 1c24
0.02162 -0.003155 -0.011795 0.01215 -0.01515 0.02739 -0.01959 -0.001763
-0.00547 0.03165 -0.013824 -0.015335 0.0 0.01761 -0.01019 -0.01732
-0.009186 0.0243 -0.00298 0.01955 -0.014465 -0.00791 -0.01671 0.004032
0.0002792 -0.01385 -0.01793 0.01161 0.004898 0.00506 -0.02155 0.01605

arith.constant65 f2 [48]
00000000: 0525 0029 c921 8fac 0f24 48aa bc1e a4ab
00000010: 50a9 8caa c6a4 8727 ad2a 8b9d 07aa 7aa8
00000020: f7aa c12a 4e9a 56a1 61a3 cd22 72aa 1cab
00000030: 482b 49aa cea5 5624 e3a9 29ac 5124 e893
00000040: ad2b 0aa6 d725 f9a9 f5a9 769a 101f 99a7
00000050: 31a5 39ac 35ac 2a9a a6ac dea5 01a8 a725
0.0196 0.03906 0.0113 -0.0712 0.01585 -0.04907 0.006577 -0.0597
-0.0415 -0.05115 -0.01865 0.0294 0.05215 -0.005413 -0.0471 -0.03497
-0.0544 0.05276 -0.003078 -0.01042 -0.01441 0.01328 -0.05035 -0.05554
0.0569 -0.0491 -0.02267 0.01694 -0.046 -0.065 0.01686 -0.000965
0.05997 -0.02359 0.02281 -0.04666 -0.04654 -0.003155 0.006897 -0.02968
-0.02028 -0.066 -0.06573 -0.00301 -0.07263 -0.02292 -0.03128 0.02208

arith.constant66 f2 [24]
00000000: 092b 812e 6e31 a22f 852f f42b 6a28 f530
00000010: 522a af2f f02f 6329 d42e f92d c22b d72d
00000020: 132c 582f f52d 832d 152e d829 822a c02c
0.05496 0.1016 0.1697 0.11926 0.1175 0.06213 0.0345 0.1549
0.04938 0.12006 0.124 0.04208 0.1067 0.0933 0.0606 0.09125
0.06366 0.11475 0.0931 0.0861 0.09503 0.04565 0.05084 0.0742

arith.constant67 f2 [64, 1, 3, 2]
00000000: 6fbc a5bb 053c 5ebe 3a9b 2a42 8d2b 6234
00000010: 1db8 0930 02bb 4634 24b3 6142 703e 5cc1
00000020: 92bd 942d 1734 7134 d5ab c9ae 2c3b 1e3a
00000030: a6bc 8329 a3b6 2939 173d 44bc f940 d8c1
00000040: e5c0 cb34 5c38 493b 3f39 31bc fd3b e53d
00000050: b3b9 382d 08c1 253e 8e3d aebf cf35 0b30
00000060: 5237 e339 7637 e436 4234 07b9 973c a430
00000070: 0fc0 8ebc 5f32 5238 ed37 523d cdb6 f9c1
00000080: 522d d241 01b8 68be 31ba e82d b329 cf39
00000090: aeb4 ec34 e1af 5fb8 31bc dfb4 78b2 4235
000000a0: a5b0 6fb5 45bc 4fb5 36b8 fe39 713d 4bbe
000000b0: d32a 6b3b 6c38 7c3e 19b9 0b39 8dba 6fb9
000000c0: 4830 5732 1dbd 4738 4937 433e 3bb4 ae3b
000000d0: 113f 1c39 ffbd 44ba cd3c 2ebd e038 2437
000000e0: f0ba 6639 a4b6 fd2f d7bd f539 203c 95b5
000000f0: 8eba 32ae 30ba 59ba 113e 753d 2039 4db5
00000100: 1631 043d 1737 c83b 1b3f 3c3f acc0 afbd
00000110: 563c 7f3b 623a 2a34 833c 17bf 3ebc c039
00000120: f6b9 413c b7ba 4cbb 3634 64a3 ad32 c0b5
00000130: a038 a2a6 4837 6b37 e5bb c33f ef37 93be
00000140: d039 95be fcbb febb e3b8 4b3b e82d 2bb9
00000150: c9b4 1a3d 553d f23a f6b8 0d36 682e 29bc
00000160: d7b1 39b0 6ebc 543a 09b5 333d 913c f9bd
00000170: 98b0 e1bd 94b6 9ab6 a736 ca38 37bd 2b30
00000180: 07bd 92ad 9435 a137 eeb9 4c3c 43b8 0bba
00000190: 073d 1ca8 ae2d 123d ad3b c841 89be f2c0
000001a0: fe35 683d 8a38 fb3e b8b8 3240 99b2 e9c2
000001b0: 0530 c3b7 1c3c 4534 382b 2fb0 38be c3bf
000001c0: ce3f 3b39 72bf 2839 5eb7 ad35 203d f6b1
000001d0: 3734 45b8 9aab f93c 93bd abbf cb3d d53c
000001e0: adba 39b7 f7b9 853b ef3d e6b8 6538 513d
000001f0: e9b2 be3e 2bbc 70bd 00b9 93b9 04b5 803d
-1.108 -0.9556 1.005 -1.592 -0.003529 3.082 0.059 0.274
-0.514 0.1261 -0.876 0.267 -0.2231 3.19 1.609 -2.68
-1.393 0.08716 0.2556 0.2776 -0.0612 -0.106 0.8965 0.7646
-1.162 0.04306 -0.4148 0.645 1.272 -1.066 2.486 -2.922
-2.447 0.2996 0.545 0.9106 0.656 -1.048 0.9985 1.474
-0.7124 0.08154 -2.516 1.536 1.389 -1.92 0.363 0.1263
0.4575 0.736 0.4663 0.4307 0.266 -0.6284 1.147 0.145
-2.03 -1.139 0.1991 0.54 0.4954 1.33 -0.425 -2.986
0.0831 2.91 -0.5005 -1.602 -0.774 0.0923 0.04453 0.726
-0.2925 0.3076 -0.1231 -0.5464 -1.048 -0.3044 -0.2021 0.3286
-0.1451 -0.3396 -1.067 -0.3318 -0.5264 0.749 1.36 -1.573
0.0533 0.9272 0.5527 1.621 -0.637 0.6304 -0.819 -0.679
0.1338 0.1981 -1.278 0.5347 0.4553 1.565 -0.2644 0.96
1.767 0.6387 -1.499 -0.783 1.2 -1.295 0.6094 0.4463
-0.867 0.675 -0.415 0.1248 -1.46 0.7446 1.031 -0.3489
-0.8193 -0.0968 -0.7734 -0.7935 1.517 1.364 0.6406 -0.3313
0.1589 1.254 0.443 0.9727 1.776 1.809 -2.336 -1.421
1.084 0.937 0.798 0.2603 1.128 -1.772 -1.061 0.7188
-0.745 1.063 -0.8394 -0.912 0.2632 -0.014435 0.2086 -0.3594
0.578 -0.02591 0.455 0.4636 -0.987 1.94 0.4958 -1.644
0.7266 -1.6455 -0.998 -0.999 -0.611 0.9116 0.0923 -0.646
-0.299 1.275 1.333 0.868 -0.62 0.3782 0.1001 -1.04
-0.1825 -0.132 -1.107 0.791 -0.3147 1.3 1.142 -1.493
-0.1436 -1.47 -0.4111 -0.4126 0.4158 0.5986 -1.304 0.1302
-1.257 -0.08704 0.3486 0.4768 -0.741 1.074 -0.5327 -0.7554
1.257 -0.0321 0.08875 1.268 0.9595 2.89 -1.634 -2.473
0.3745 1.352 0.5674 1.745 -0.59 2.098 -0.2062 -3.455
0.1256 -0.485 1.027 0.2668 0.0564 -0.1307 -1.555 -1.94
1.951 0.654 -1.861 0.6445 -0.4604 0.3547 1.281 -0.1863
0.2634 -0.5337 -0.0594 1.243 -1.394 -1.917 1.448 1.208
-0.8345 -0.4514 -0.7456 0.94 1.483 -0.6123 0.5493 1.329
-0.216 1.686 -1.042 -1.359 -0.625 -0.697 -0.3135 1.375

arith.constant68 f2 [64, 1, 5, 64]
00000000: 24a7 9d29 a229 88a6 53a9 9a27 05ad 4623
00000010: 8fa8 9724 4c2c dcab 6524 78a3 1922 9ea8
00000020: e92b a425 869e 40a4 75ab 61a8 5c2c 912c
00000030: 4aa7 9a24 8a28 a8a8 9aa8 6f28 af2b f4a4
00000040: 7828 6a9a 992d 3ea0 892b a31c f229 3e2a
00000050: 2aac 9a1c 401c 70ab 972b 8026 24ab 5118
00000060: 3d2c 5727 8824 d825 58ae 6a1c 5724 102a
00000070: f2a8 2b9a 3329 4198 2f26 80a4 f821 77ad
00000080: 7a25 42a6 079c 9726 3b1d 3d28 25a6 d1a4
00000090: bea7 caaa 6a2b 3725 bf04 a79a 6322 5b27
000000a0: 3729 1bab 7c28 ec24 aaa1 709e fca4 e82c
000000b0: b3a1 1222 7027 5624 2a26 62ab de22 6421
000000c0: 5a29 0925 a429 da2a 38a4 aaa0 41ae e724
000000d0: 4ba9 1c25 cc20 c1ad 9aa1 d52a 7f25 9ba2
000000e0: 1b2b e79a 2023 30b0 d329 54a9 8924 3fa8
000000f0: d6a8 07a8 1eae 2ea8 9ea8 18a5 b128 9d26
00000100: 8c9c 402b 5b22 38a0 5324 a19d f8a7 e528
00000110: 7d9a 092b 28a8 ea28 e72a da2b 3cb1 ec29
00000120: dca9 d6ac 82a8 9726 3026 f129 1529 64ac
00000130: 1fa1 9da1 aa9e 72a4 ed25 b3aa d09c cd29
00000140: b424 2da7 d52c ab26 fba8 b8ad 1fa9 3ea8
00000150: d89f b32b 6d18 58ac dfa8 45a1 d9ac e8a4
00000160: dba6 f6a2 a8a2 7724 17a7 a391 3429 9e2b
00000170: 0728 4e26 f21d efa5 1026 89aa 1317 611f
00000180: f79f 162c a820 5ca6 8e9c 9daa 99ad e3a8
00000190: f2a8 faa3 4992 2e2c a11d 7aaa d49f af1d
000001a0: 639e 1d20 71ad 6caa 2aaa 1fab 5ba9 aea4
000001b0: 9ea2 0ba9 f4a6 6e2b 8823 09a7 389e 8529
000001c0: c1a8 7bac 2d29 28a5 e6aa 54a5 8725 22ad
000001d0: 5daa cd2b e126 58a4 0316 e226 c1a9 1223
000001e0: ef21 d8a5 9fa1 3728 a3ac 08ae ce20 eb27
000001f0: 0629 83a0 8aa8 e1a9 aea6 4b26 5faa 9e2c
-0.0279 0.04385 0.044 -0.02551 -0.0416 0.0297 -0.0784 0.014206
-0.0356 0.01793 0.06714 -0.0614 0.01717 -0.01459 0.01191 -0.03607
0.0618 0.02203 -0.00637 -0.0166 -0.05826 -0.0342 0.0681 0.07135
-0.02847 0.01797 0.03546 -0.03638 -0.03595 0.03464 0.06003 -0.01935
0.0349 -0.003132 0.08746 -0.008286 0.05887 0.004528 0.04645 0.04877
-0.06506 0.004494 0.00415 -0.0581 0.0593 0.02539 -0.0558 0.002108
0.0662 0.02867 0.0177 0.02283 -0.0991 0.00431 0.01695 0.04736
-0.03864 -0.003012 0.04062 -0.002077 0.02415 -0.01758 0.01166 -0.0854
0.0214 -0.02444 -0.003933 0.02574 0.005108 0.0331 -0.024 -0.01881
-0.03024 -0.05304 0.05792 0.02037 7.24e-05 -0.003248 0.012474 0.02873
0.04074 -0.0555 0.03503 0.01923 -0.01106 -0.006287 -0.01947 0.07666
-0.01113 0.011856 0.02905 0.01694 0.02408 -0.05768 0.01341 0.01053
0.0418 0.01967 0.04407 0.05353 -0.01648 -0.00911 -0.0977 0.01915
-0.04135 0.01996 0.00937 -0.0899 -0.01094 0.05338 0.02147 -0.0129
0.0555 -0.00337 0.013916 -0.1309 0.0455 -0.04163 0.01772 -0.03317
-0.03778 -0.03146 -0.0956 -0.03265 -0.03607 -0.0199 0.03665 0.02583
-0.00444 0.05664 0.01241 -0.00824 0.01689 -0.005497 -0.03113 0.03824
-0.003168 0.05496 -0.03247 0.0384 0.05392 0.06134 -0.1636 0.04626
-0.04578 -0.07556 -0.03522 0.02574 0.02417 0.04642 0.0397 -0.0686
-0.01 -0.01096 -0.006508 -0.01736 0.02315 -0.05234 -0.0047 0.04532
0.01837 -0.02803 0.0755 0.02605 -0.0389 -0.08936 -0.04 -0.03314
-0.00766 0.06015 0.002161 -0.0679 -0.03806 -0.01029 -0.07574 -0.01917
-0.02678 -0.013596 -0.013 0.01744 -0.0277 -0.000688 0.04065 0.0595
0.03146 0.02463 0.005806 -0.02318 0.02368 -0.05106 0.001727 0.007206
-0.00778 0.06384 0.009094 -0.02484 -0.004448 -0.05167 -0.08746 -0.03818
-0.03864 -0.01558 -0.000767 0.0653 0.005497 -0.0506 -0.007645 0.00555
-0.006237 0.00803 -0.085 -0.05017 -0.04816 -0.05563 -0.04184 -0.01828
-0.012924 -0.0394 -0.02716 0.05804 0.01471 -0.02748 -0.006073 0.04312
-0.03714 -0.07 0.04044 -0.02014 -0.0539 -0.02081 0.02159 -0.0802
-0.0497 0.06094 0.02687 -0.01697 0.001468 0.02689 -0.04495 0.01381
0.01159 -0.02283 -0.01098 0.03293 -0.07245 -0.09424 0.009384 0.03093
0.03925 -0.00881 -0.03546 -0.04593 -0.0261 0.02458 -0.04977 0.07214

arith.constant69 f2 [128, 1, 3, 64]
00000000: d8b1 acb6 72ac ecb2 aa34 d035 b4ac a0ac
00000010: 86b1 03ab 50ae 77ac b835 6635 04ab 8935
00000020: 81a7 37b2 94b1 a4b0 f7a9 31b5 5f31 8cae
00000030: 3430 4db5 a821 6533 25af 22ab 0b33 4131
00000040: 06b4 3c34 ea34 14b5 b637 e633 d531 3f31
00000050: 2e34 71af 3baf c3ad e2ad 1e34 efb1 2ab5
00000060: 2aab 892e 5db4 c130 81b7 f0ae 1233 77b3
00000070: da29 55b4 d334 852f c42d 9ab5 5bb0 e6a4
00000080: 5ea7 c0af 7538 3126 50b0 012f d02d 83b4
00000090: e134 faaf 901a 90b0 c737 eda8 52a5 2338
000000a0: 7a31 d534 b9b0 6135 5fa7 0133 73ad 6926
000000b0: 3233 10b8 e532 f5ac e533 2cb0 2fb0 ad2f
000000c0: 0532 3b35 61a2 8e31 4fb6 cd2e 142a 0ab4
000000d0: 8633 dfb2 ec1a 7d32 b435 dd1b 41b3 2bb0
000000e0: 792f 5ab2 b930 7d24 adb8 ddb1 832e 74af
000000f0: f630 1926 64b6 08b3 1b24 bc33 b8a9 0fb1
00000100: 092a e8ae c835 8b20 0a2a 1e25 bdad c6b4
00000110: b4b1 df2a 7db3 302c c134 40b1 8096 c6ae
00000120: f9b2 392a 3832 50aa 28a9 17ab 3d2a 9f32
00000130: 2db1 3cb4 9724 3cb2 8eb3 40ae c930 f6a8
00000140: a1b2 8eb0 6534 bfb0 46b5 a330 19b2 39af
00000150: 07b2 7732 39b1 29af 01a8 112e db2e 9a26
00000160: d3a8 49ab bab1 a833 19b5 e69e c82f ddb5
00000170: f131 58ac 33ac 6633 c034 15a2 af2f 9caf
00000180: 2cb3 6ea7 3f2f 8d25 c034 24b4 3532 ac31
00000190: a5a7 3025 b0b0 5130 9938 5fb2 beaa 8838
000001a0: ba31 a72c 1532 ea2f eab1 6aad b4a6 14b3
000001b0: 9c2d 63b1 b433 742e 45b5 5520 c92c 21ad
000001c0: 39b4 fc33 8034 9b2d 70a4 34b0 0e30 2e28
000001d0: 5b36 22b6 3ab3 9e2d 5bb4 2034 e037 0f2d
000001e0: 8c31 cfb1 3aaf a4a0 0ead 09b6 1f34 65a7
000001f0: 162e c62b 72b1 57ad ac36 9fb0 89ae 7da8
-0.1826 -0.417 -0.06946 -0.2163 0.2915 0.3633 -0.0735 -0.07227
-0.1726 -0.05478 -0.09863 -0.06976 0.3574 0.3374 -0.0548 0.346
-0.02931 -0.1942 -0.1743 -0.145 -0.0466 -0.3245 0.1678 -0.1023
0.1313 -0.3313 0.01105 0.2311 -0.11163 -0.05573 0.2201 0.1642
-0.2515 0.2646 0.3071 -0.3174 0.482 0.2468 0.1823 0.164
0.2612 -0.1163 -0.113 -0.09 -0.0919 0.2573 -0.1854 -0.3228
-0.05597 0.1021 -0.2727 0.1486 -0.469 -0.1084 0.221 -0.2333
0.04572 -0.2708 0.3015 0.1175 0.0901 -0.35 -0.1361 -0.01913
-0.02878 -0.1211 0.557 0.02419 -0.1348 0.10944 0.0908 -0.282
0.305 -0.12463 0.003204 -0.1426 0.486 -0.03848 -0.02078 0.517
0.1711 0.302 -0.1476 0.3362 -0.0288 0.2189 -0.08514 0.02504
0.2249 -0.508 0.2155 -0.07745 0.2467 -0.1304 -0.1307 0.11993
0.1881 0.327 -0.01246 0.1736 -0.3943 0.10626 0.0475 -0.2524
0.2351 -0.2147 0.00338 0.2028 0.3564 0.00384 -0.2267 -0.1302
0.11676 -0.1985 0.1476 0.01753 -0.5845 -0.1832 0.10175 -0.11646
0.155 0.02382 -0.3994 -0.2197 0.01604 0.2417 -0.04468 -0.1581
0.04715 -0.1079 0.3613 0.00887 0.04718 0.01999 -0.08966 -0.2983
-0.1782 0.05368 -0.234 0.0654 0.297 -0.1641 -0.001587 -0.10583
-0.2179 0.0486 0.1943 -0.04932 -0.04028 -0.0554 0.04874 0.2069
-0.1617 -0.2646 0.01793 -0.1948 -0.2361 -0.09766 0.1495 -0.03876
-0.2072 -0.1423 0.2747 -0.1483 -0.3296 0.1449 -0.1906 -0.11285
-0.1884 0.202 -0.1632 -0.1119 -0.03128 0.0948 0.1071 0.02579
-0.0377 -0.05692 -0.179 0.2393 -0.3186 -0.006737 0.1216 -0.3665
0.1857 -0.0679 -0.0656 0.2312 0.2969 -0.01188 0.12006 -0.1189
-0.2241 -0.02902 0.1132 0.02168 0.2969 -0.2588 0.194 0.1772
-0.02986 0.02026 -0.1465 0.1349 0.5747 -0.1991 -0.05267 0.5664
0.179 0.0727 0.1901 0.12366 -0.1848 -0.0846 -0.02618 -0.2212
0.08765 -0.1683 0.2407 0.1008 -0.3293 0.00846 0.07477 -0.08014
-0.264 0.2495 0.2812 0.0876 -0.01733 -0.1313 0.1267 0.03265
0.3972 -0.3833 -0.2258 0.08777 -0.2722 0.2578 0.4922 0.07904
0.1733 -0.1815 -0.1129 -0.00906 -0.079 -0.3772 0.2576 -0.02888
0.0951 0.06073 -0.1702 -0.08344 0.417 -0.1444 -0.1021 -0.03506

arith.constant70 f2 [64]
00000000: 7caf cb2c 0830 9db5 9fb1 0c33 63b2 a3b2
00000010: 9ab4 8a2f 95ac 0c30 bf24 b026 8bb5 b02c
00000020: 600c e1b0 0f2a aca4 8cb0 11b4 34a8 15ad
00000030: a429 e5b5 90b1 ee2c 39b4 5730 52b4 bb23
00000040: e2ab 43b6 b033 462e 1db2 bc2c 74b5 7328
00000050: b6a8 eb30 a226 c2b4 adb4 b92d 3cb3 662e
00000060: 00a5 3224 2f2d 4cb4 dcb4 6729 8231 43ac
00000070: 1aaa 5fb5 1db1 ba2f 2e24 4cb5 d229 1b2d
-0.11694 0.0749 0.126 -0.3508 -0.1757 0.2202 -0.1996 -0.2074
-0.2876 0.1178 -0.0716 0.1265 0.01854 0.02612 -0.3464 0.07324
0.000267 -0.1525 0.04733 -0.01825 -0.1421 -0.2542 -0.03284 -0.0794
0.04407 -0.3684 -0.1738 0.077 -0.264 0.1356 -0.27 0.0151
-0.06158 -0.3914 0.2402 0.098 -0.191 0.074 -0.3408 0.03476
-0.0368 0.1537 0.02591 -0.2974 -0.2922 0.0894 -0.2261 0.1
-0.01953 0.01639 0.081 -0.2686 -0.3037 0.0422 0.1721 -0.0666
-0.04767 -0.3357 -0.1598 0.1207 0.01633 -0.331 0.04547 0.0798

arith.constant71 f2 [64]
00000000: 7e30 4839 e735 ec36 b136 4438 8737 0eb9
00000010: 1132 40b4 b634 2536 2ab3 c9bb 643b b939
00000020: 0638 453a c731 9336 3338 9c30 d2b9 1c3c
00000030: b73b 3735 0139 e637 d537 343a 1739 5e35
00000040: 8e38 4dac a038 b538 8939 f62c 4039 1436
00000050: 3038 b7b4 2b37 fa30 d03a 8025 a736 993c
00000060: 4f3b 693a 953a c4b4 2638 0338 f23c 90bd
00000070: 3136 3b36 872b 1626 9826 80b4 ca3a 3d3a
0.1404 0.66 0.369 0.4326 0.4182 0.533 0.4705 -0.632
0.1896 -0.2656 0.2944 0.384 -0.2239 -0.973 0.924 0.7153
0.503 0.7837 0.1805 0.411 0.525 0.144 -0.7275 1.027
0.9644 0.326 0.6255 0.4937 0.4895 0.7754 0.636 0.3354
0.5693 -0.0672 0.578 0.5884 0.692 0.0775 0.6562 0.38
0.5234 -0.2947 0.448 0.1555 0.8516 0.02148 0.4158 1.149
0.9136 0.8013 0.8228 -0.2979 0.5186 0.5015 1.236 -1.391
0.387 0.3894 0.0588 0.02377 0.02576 -0.2812 0.8486 0.78

arith.constant72 f2 [128]
00000000: ab36 d6bf 4a40 9b3d 4e28 743b c639 a337
00000010: adb9 e7b8 2235 1e3c df3d 82bf 6438 b5b9
00000020: f5ad a83d fdb5 7535 b3b7 b338 cc3e c83c
00000030: ca3f 2d31 f5b5 543c 733c 7e34 7c33 803e
00000040: 063e bf3a ad40 0441 203d cf2e 423f 80ba
00000050: 1c3e 27b2 4130 6d2f a43f e03f 083b 3130
00000060: 793e 023f c53e 67b5 ae27 f4bb fbb4 dc3a
00000070: 2d3b 63b8 7cb5 743d ce36 1d40 1235 d9c0
00000080: 583d 483f 343c 73bb 2fbb 6340 ea2c 7538
00000090: 2d3d 893c 673a 52b4 2c35 41b5 1634 8d30
000000a0: 5db4 db39 023d d8c0 113c b441 bf3d c93c
000000b0: c4b4 b3b6 883d 34b8 6db5 5440 4738 af35
000000c0: 503e 6740 4632 0b3f aca4 5dae ac3c a62c
000000d0: fbbc e536 f736 98b5 de38 d1bd 0834 7539
000000e0: 78bd 47b9 8f3d 3940 67ae 8d3b 2536 b43e
000000f0: deb5 7bbe 103e a637 d23c 0640 dc39 b73a
0.4167 -1.959 2.145 1.401 0.03363 0.9316 0.7217 0.4773
-0.7095 -0.613 0.3208 1.029 1.468 -1.877 0.549 -0.7134
-0.0931 1.414 -0.3743 0.341 -0.4812 0.5874 1.699 1.195
1.947 0.1617 -0.3723 1.082 1.112 0.2808 0.2339 1.625
1.506 0.8433 2.338 2.508 1.281 0.1064 1.814 -0.8125
1.527 -0.1923 0.1329 0.116 1.91 1.969 0.879 0.131
1.618 1.752 1.692 -0.3376 0.03 -0.994 -0.3113 0.8574
0.897 -0.5483 -0.3428 1.363 0.4253 2.057 0.317 -2.424
1.336 1.82 1.051 -0.931 -0.898 2.193 0.0768 0.557
1.294 1.134 0.8003 -0.27 0.3232 -0.3284 0.2554 0.1422
-0.2727 0.732 1.252 -2.422 1.017 2.852 1.437 1.196
-0.2979 -0.4187 1.383 -0.5254 -0.339 2.164 0.5347 0.3552
1.578 2.201 0.196 1.761 -0.01825 -0.0994 1.168 0.07263
-1.245 0.431 0.4353 -0.3496 0.6084 -1.454 0.252 0.682
-1.367 -0.6597 1.39 2.111 -0.10004 0.944 0.384 1.676
-0.3667 -1.62 1.516 0.478 1.205 2.012 0.7324 0.8394
